…
Spliting tab-separated files...
Labels shape:  (1500,)
Tokenizing files... [A]
Split training set into train and val... [A]
Tokenizing files... [B]
Split training set into train and val... [B]
Getting embedding matrix...
Found 4049540 word vectors.
Filling embedding matrices...
____________________________________________________________________________________________________
Layer (type)                     Output Shape          Param #     Connected to                     
====================================================================================================
embedding_1 (Embedding)          (None, 50, 50)        185950                                       
____________________________________________________________________________________________________
attention_1 (Attention)          (None, 50, 25)        8900                                         
____________________________________________________________________________________________________
attention_2 (Attention)          (None, 50, 25)        2575                                         
____________________________________________________________________________________________________
attention_3 (Attention)          (None, 50, 25)        2575                                         
____________________________________________________________________________________________________
attention_4 (Attention)          (None, 25)            2575                                         
____________________________________________________________________________________________________
activation_1 (Activation)        (None, 25)            0                                            
____________________________________________________________________________________________________
embedding_2 (Embedding)          (None, 50, 50)        212200                                       
____________________________________________________________________________________________________
attention_5 (Attention)          (None, 50, 25)        8900                                         
____________________________________________________________________________________________________
attention_6 (Attention)          (None, 50, 25)        2575                                         
____________________________________________________________________________________________________
attention_7 (Attention)          (None, 50, 25)        2575                                         
____________________________________________________________________________________________________
attention_8 (Attention)          (None, 25)            2575                                         
____________________________________________________________________________________________________
activation_2 (Activation)        (None, 25)            0                                            
____________________________________________________________________________________________________
maxoutdense_1 (MaxoutDense)      (None, 10)            2040        merge_1[0][0]                    
____________________________________________________________________________________________________
maxoutdense_2 (MaxoutDense)      (None, 1)             44          maxoutdense_1[0][0]              
====================================================================================================
Total params: 433,484
Trainable params: 35,334
Non-trainable params: 398,150
____________________________________________________________________________________________________
None
Train on 1050 samples, validate on 450 samples
Epoch 1/100
1050/1050 [==============================] - 193s - loss: 1.4472 - mean_absolute_error: 1.4472 - mean_squared_error: 2.7143 - val_loss: 1.3324 - val_mean_absolute_error: 1.3324 - val_mean_squared_error: 2.2458
…
1050/1050 [==============================] - 194s - loss: 0.8470 - mean_absolute_error: 0.8470 - mean_squared_error: 1.3477 - val_loss: 1.2506 - val_mean_absolute_error: 1.2506 - val_mean_squared_error: 2.6056
Epoch 100/100
1050/1050 [==============================] - 195s - loss: 0.8637 - mean_absolute_error: 0.8637 - mean_squared_error: 1.4454 - val_loss: 1.2089 - val_mean_absolute_error: 1.2089 - val_mean_squared_error: 2.4692

Parameters:
---------------------
h_STATES=25
EPOCHS=100
DENSES=10
Representation=fastText
EMBEDDING_DIM=50
MAX_SEQUENCE_LENGTH=50


____________________________________________________________________________________________________
attention_2 (Attention)          (None, 50, 40)        6520                                         
____________________________________________________________________________________________________
attention_3 (Attention)          (None, 50, 40)        6520                                         
____________________________________________________________________________________________________
attention_4 (Attention)          (None, 40)            6520                                         
____________________________________________________________________________________________________
activation_1 (Activation)        (None, 40)            0                                            
____________________________________________________________________________________________________
embedding_2 (Embedding)          (None, 50, 100)       424400                                       
____________________________________________________________________________________________________
attention_5 (Attention)          (None, 50, 40)        34300                                        
____________________________________________________________________________________________________
attention_6 (Attention)          (None, 50, 40)        6520                                         
____________________________________________________________________________________________________
attention_7 (Attention)          (None, 50, 40)        6520                                         
____________________________________________________________________________________________________
attention_8 (Attention)          (None, 40)            6520                                         
____________________________________________________________________________________________________
activation_2 (Activation)        (None, 40)            0                                            
____________________________________________________________________________________________________
maxoutdense_1 (MaxoutDense)      (None, 10)            3240        merge_1[0][0]                    
____________________________________________________________________________________________________
maxoutdense_2 (MaxoutDense)      (None, 1)             44          maxoutdense_1[0][0]              
====================================================================================================
Total params: 907,304
Trainable params: 111,004
Non-trainable params: 796,300
____________________________________________________________________________________________________
None
Happy learning!!!
Train on 1050 samples, validate on 450 samples
Epoch 1/20
…
Split training set into train and val... [A]
Tokenizing files... [B]
Split training set into train and val... [B]
Getting embedding matrix... from /almac/ignacio/data/fastText/wikiEn_Full_H100.model.vec
Found 4049540 word vectors.
Filling embedding matrices...
Compiling the model...
____________________________________________________________________________________________________
Layer (type)                     Output Shape          Param #     Connected to                     
====================================================================================================
embedding_1 (Embedding)          (None, 50, 100)       371900                                       
____________________________________________________________________________________________________
attention_1 (Attention)          (None, 50, 40)        34300                                        
____________________________________________________________________________________________________
attention_2 (Attention)          (None, 50, 40)        6520                                         
____________________________________________________________________________________________________
attention_3 (Attention)          (None, 50, 40)        6520                                         
____________________________________________________________________________________________________
attention_4 (Attention)          (None, 40)            6520                                         
____________________________________________________________________________________________________
activation_1 (Activation)        (None, 40)            0                                            
____________________________________________________________________________________________________
embedding_2 (Embedding)          (None, 50, 100)       424400                                       
____________________________________________________________________________________________________
attention_5 (Attention)          (None, 50, 40)        34300                                        
____________________________________________________________________________________________________
attention_6 (Attention)          (None, 50, 40)        6520                                         
____________________________________________________________________________________________________
attention_7 (Attention)          (None, 50, 40)        6520                                         
____________________________________________________________________________________________________
attention_8 (Attention)          (None, 40)            6520                                         
____________________________________________________________________________________________________
activation_2 (Activation)        (None, 40)            0                                            
____________________________________________________________________________________________________
maxoutdense_1 (MaxoutDense)      (None, 30)            9720        merge_1[0][0]                    
____________________________________________________________________________________________________
maxoutdense_2 (MaxoutDense)      (None, 1)             124         maxoutdense_1[0][0]              
====================================================================================================
Total params: 913,864
Trainable params: 117,564
Non-trainable params: 796,300
____________________________________________________________________________________________________
None
Happy learning!!!
Train on 1050 samples, validate on 450 samples
Epoch 1/20
…
Split training set into train and val... [A]
Tokenizing files... [B]
Split training set into train and val... [B]
Getting embedding matrix... from /almac/ignacio/data/fastText/wikiEn_Full_H100.model.vec
Found 4049540 word vectors.
Filling embedding matrices...
Compiling the model...
____________________________________________________________________________________________________
Layer (type)                     Output Shape          Param #     Connected to                     
====================================================================================================
embedding_1 (Embedding)          (None, 50, 100)       371900                                       
____________________________________________________________________________________________________
attention_1 (Attention)          (None, 50, 40)        34300                                        
____________________________________________________________________________________________________
attention_2 (Attention)          (None, 50, 40)        6520                                         
____________________________________________________________________________________________________
attention_3 (Attention)          (None, 50, 40)        6520                                         
____________________________________________________________________________________________________
attention_4 (Attention)          (None, 40)            6520                                         
____________________________________________________________________________________________________
activation_1 (Activation)        (None, 40)            0                                            
____________________________________________________________________________________________________
embedding_2 (Embedding)          (None, 50, 100)       424400                                       
____________________________________________________________________________________________________
attention_5 (Attention)          (None, 50, 40)        34300                                        
____________________________________________________________________________________________________
attention_6 (Attention)          (None, 50, 40)        6520                                         
____________________________________________________________________________________________________
attention_7 (Attention)          (None, 50, 40)        6520                                         
____________________________________________________________________________________________________
attention_8 (Attention)          (None, 40)            6520                                         
____________________________________________________________________________________________________
activation_2 (Activation)        (None, 40)            0                                            
____________________________________________________________________________________________________
maxoutdense_1 (MaxoutDense)      (None, 20)            6480        merge_1[0][0]                    
____________________________________________________________________________________________________
maxoutdense_2 (MaxoutDense)      (None, 1)             84          maxoutdense_1[0][0]              
====================================================================================================
Total params: 910,584
Trainable params: 114,284
Non-trainable params: 796,300
____________________________________________________________________________________________________
None
Happy learning!!!
Train on 1050 samples, validate on 450 samples
Epoch 1/20
…
Split training set into train and val... [A]
Tokenizing files... [B]
Split training set into train and val... [B]
Getting embedding matrix... from /almac/ignacio/data/fastText/wikiEn_Full_H100.model.vec
Found 4049540 word vectors.
Filling embedding matrices...
Compiling the model...
____________________________________________________________________________________________________
Layer (type)                     Output Shape          Param #     Connected to                     
====================================================================================================
embedding_1 (Embedding)          (None, 50, 100)       371900                                       
____________________________________________________________________________________________________
attention_1 (Attention)          (None, 50, 40)        34300                                        
____________________________________________________________________________________________________
attention_2 (Attention)          (None, 50, 40)        6520                                         
____________________________________________________________________________________________________
attention_3 (Attention)          (None, 50, 40)        6520                                         
____________________________________________________________________________________________________
attention_4 (Attention)          (None, 40)            6520                                         
____________________________________________________________________________________________________
activation_1 (Activation)        (None, 40)            0                                            
____________________________________________________________________________________________________
embedding_2 (Embedding)          (None, 50, 100)       424400                                       
____________________________________________________________________________________________________
attention_5 (Attention)          (None, 50, 40)        34300                                        
____________________________________________________________________________________________________
attention_6 (Attention)          (None, 50, 40)        6520                                         
____________________________________________________________________________________________________
attention_7 (Attention)          (None, 50, 40)        6520                                         
____________________________________________________________________________________________________
attention_8 (Attention)          (None, 40)            6520                                         
____________________________________________________________________________________________________
activation_2 (Activation)        (None, 40)            0                                            
____________________________________________________________________________________________________
maxoutdense_1 (MaxoutDense)      (None, 100)           32400       merge_1[0][0]                    
____________________________________________________________________________________________________
maxoutdense_2 (MaxoutDense)      (None, 1)             404         maxoutdense_1[0][0]              
====================================================================================================
Total params: 936,824
Trainable params: 140,524
Non-trainable params: 796,300
____________________________________________________________________________________________________
None
Happy learning!!!
Train on 1050 samples, validate on 450 samples
Epoch 1/20
…
Split training set into train and val... [A]
Tokenizing files... [B]
Split training set into train and val... [B]
Getting embedding matrix... from /almac/ignacio/data/fastText/wikiEn_Full_H100.model.vec
Found 4049540 word vectors.
Filling embedding matrices...
Compiling the model...
____________________________________________________________________________________________________
Layer (type)                     Output Shape          Param #     Connected to                     
====================================================================================================
embedding_1 (Embedding)          (None, 50, 100)       371900                                       
____________________________________________________________________________________________________
attention_1 (Attention)          (None, 50, 40)        34300                                        
____________________________________________________________________________________________________
attention_2 (Attention)          (None, 50, 40)        6520                                         
____________________________________________________________________________________________________
attention_3 (Attention)          (None, 50, 40)        6520                                         
____________________________________________________________________________________________________
attention_4 (Attention)          (None, 40)            6520                                         
____________________________________________________________________________________________________
activation_1 (Activation)        (None, 40)            0                                            
____________________________________________________________________________________________________
embedding_2 (Embedding)          (None, 50, 100)       424400                                       
____________________________________________________________________________________________________
attention_5 (Attention)          (None, 50, 40)        34300                                        
____________________________________________________________________________________________________
attention_6 (Attention)          (None, 50, 40)        6520                                         
____________________________________________________________________________________________________
attention_7 (Attention)          (None, 50, 40)        6520                                         
____________________________________________________________________________________________________
attention_8 (Attention)          (None, 40)            6520                                         
____________________________________________________________________________________________________
activation_2 (Activation)        (None, 40)            0                                            
____________________________________________________________________________________________________
maxoutdense_1 (MaxoutDense)      (None, 40)            12960       merge_1[0][0]                    
____________________________________________________________________________________________________
maxoutdense_2 (MaxoutDense)      (None, 1)             164         maxoutdense_1[0][0]              
====================================================================================================
Total params: 917,144
Trainable params: 120,844
Non-trainable params: 796,300
____________________________________________________________________________________________________
None
Happy learning!!!
Train on 1050 samples, validate on 450 samples
Epoch 1/20
…
Split training set into train and val... [A]
Tokenizing files... [B]
Split training set into train and val... [B]
Getting embedding matrix... from /almac/ignacio/data/fastText/wikiEn_Full_H100.model.vec
Found 4049540 word vectors.
Filling embedding matrices...
Compiling the model...
____________________________________________________________________________________________________
Layer (type)                     Output Shape          Param #     Connected to                     
====================================================================================================
embedding_1 (Embedding)          (None, 50, 100)       371900                                       
____________________________________________________________________________________________________
attention_1 (Attention)          (None, 50, 40)        34300                                        
____________________________________________________________________________________________________
attention_2 (Attention)          (None, 50, 40)        6520                                         
____________________________________________________________________________________________________
attention_3 (Attention)          (None, 50, 40)        6520                                         
____________________________________________________________________________________________________
attention_4 (Attention)          (None, 40)            6520                                         
____________________________________________________________________________________________________
activation_1 (Activation)        (None, 40)            0                                            
____________________________________________________________________________________________________
embedding_2 (Embedding)          (None, 50, 100)       424400                                       
____________________________________________________________________________________________________
attention_5 (Attention)          (None, 50, 40)        34300                                        
____________________________________________________________________________________________________
attention_6 (Attention)          (None, 50, 40)        6520                                         
____________________________________________________________________________________________________
attention_7 (Attention)          (None, 50, 40)        6520                                         
____________________________________________________________________________________________________
attention_8 (Attention)          (None, 40)            6520                                         
____________________________________________________________________________________________________
activation_2 (Activation)        (None, 40)            0                                            
____________________________________________________________________________________________________
maxoutdense_1 (MaxoutDense)      (None, 50)            16200       merge_1[0][0]                    
____________________________________________________________________________________________________
maxoutdense_2 (MaxoutDense)      (None, 1)             204         maxoutdense_1[0][0]              
====================================================================================================
Total params: 920,424
Trainable params: 124,124
Non-trainable params: 796,300
____________________________________________________________________________________________________
None
Happy learning!!!
Train on 1050 samples, validate on 450 samples
Epoch 1/20
…
