…
Split training set into train and val... [A]
Tokenizing files... [B]
Split training set into train and val... [B]
Getting embedding matrix... from /almac/ignacio/data/fastText/wikiEn_Full_H200.model.vec
Found 2226372 word vectors.
Filling embedding matrices...
Compiling the model...
____________________________________________________________________________________________________
Layer (type)                     Output Shape          Param #     Connected to                     
====================================================================================================
embedding_1 (Embedding)          (None, 50, 200)       2195200     embedding_input_3[0][0]          
____________________________________________________________________________________________________
attention_1 (Attention)          (None, 50, 50)        130600      embedding_1[0][0]                
____________________________________________________________________________________________________
attention_2 (Attention)          (None, 50, 50)        10150       attention_1[0][0]                
____________________________________________________________________________________________________
attention_3 (Attention)          (None, 50, 50)        10150       attention_2[0][0]                
____________________________________________________________________________________________________
attention_4 (Attention)          (None, 50)            10150       attention_3[0][0]                
____________________________________________________________________________________________________
embedding_2 (Embedding)          (None, 50, 200)       2254800     embedding_input_4[0][0]          
____________________________________________________________________________________________________
attention_5 (Attention)          (None, 50, 50)        130600      embedding_2[0][0]                
____________________________________________________________________________________________________
attention_6 (Attention)          (None, 50, 50)        10150       attention_5[0][0]                
____________________________________________________________________________________________________
attention_7 (Attention)          (None, 50, 50)        10150       attention_6[0][0]                
____________________________________________________________________________________________________
attention_8 (Attention)          (None, 50)            10150       attention_7[0][0]                
____________________________________________________________________________________________________
maxoutdense_1 (MaxoutDense