…
Split training set into train and val... [A]
Tokenizing files... [B]
Split training set into train and val... [B]
Getting embedding matrix... from /almac/ignacio/data/fastText/wikiEn_Full_H100.model.vec
Found 4049540 word vectors.
Filling embedding matrices...
Compiling the model...
____________________________________________________________________________________________________
Layer (type)                     Output Shape          Param #     Connected to                     
====================================================================================================
embedding_1 (Embedding)          (None, 50, 100)       1097600     embedding_input_3[0][0]          
____________________________________________________________________________________________________
attention_1 (Attention)          (None, 50, 100)       40300       embedding_1[0][0]                
____________________________________________________________________________________________________
attention_2 (Attention)          (None, 50, 100)       40300       attention_1[0][0]                
____________________________________________________________________________________________________
attention_3 (Attention)          (None, 50, 100)       40300       attention_2[0][0]                
____________________________________________________________________________________________________
attention_4 (Attention)          (None, 100)           40300       attention_3[0][0]                
____________________________________________________________________________________________________
embedding_2 (Embedding)          (None, 50, 100)       1127400     embedding_input_4[0][0]          
____________________________________________________________________________________________________
attention_5 (Attention)          (None, 50, 100)       40300       embedding_2[0][0]                
____________________________________________________________________________________________________
attention_6 (Attention)          (None, 50, 100)       40300       attention_5[0][0]                
____________________________________________________________________________________________________
attention_7 (Attention)          (None, 50, 100)       40300       attention_6[0][0]                
____________________________________________________________________________________________________
attention_8 (Attention)          (None, 100)           40300       attention_7[0][0]                
____________________________________________________________________________________________________
maxoutdense_1 (MaxoutDense)      (None, 1)             804         merge_1[0][0]                    
====================================================================================================
Total params: 2,548,204
Trainable params: 323,204
Non-trainable params: 2,225,000
____________________________________________________________________________________________________
Happy learning!!!
Train on 5544 samples, validate on 2376 samples
Epoch 1/25
…
